…
2025-04-29 17:08:13,988   INFO  cfg.TAG: pan_rgb
2025-04-29 17:08:13,988   INFO  cfg.EXP_GROUP_PATH: kitti_models
2025-04-29 17:08:14,116   INFO  Database filter by min points Car: 14357 => 13467
2025-04-29 17:08:14,134   INFO  Database filter by difficulty Car: 13467 => 10759
2025-04-29 17:08:14,140   INFO  Loading KITTI dataset
2025-04-29 17:08:14,235   INFO  Total samples for KITTI dataset: 3712
2025-04-29 17:08:15,322   INFO  PointPAN(
  (vfe): None
  (backbone_3d): PANBackbone(
    (SA_modules): ModuleList(
      (0): PointConv(
        (convs): Sequential(
          (0): set_conv(
            (conv): Sequential(
              (0): Conv2d(4, 64, kernel_size=(1, 1), stride=(1, 1), bias=False)
              (1): BatchNorm2d(64, eps=1e-05, momentum=0.1, affine=True, track_running_stats=True)
              (2): ReLU()
              (3): Conv2d(64, 64, kernel_size=(1, 1), stride=(1, 1), bias=False)
              (4): BatchNorm2d(64, eps=1e-05, momentum=0.1, affine=True, track_running_stats=True)
            )
            (conv1): Sequential(
              (0): Conv2d(64, 64, kernel_size=(1, 1), stride=(1, 1), bias=False)
              (1): BatchNorm2d(64, eps=1e-05, momentum=0.1, affine=True, track_running_stats=True)
              (2): ReLU()
              (3): Conv2d(64, 64, kernel_size=(1, 1), stride=(1, 1), bias=False)
              (4): BatchNorm2d(64, eps=1e-05, momentum=0.1, affine=True, track_running_stats=True)
              (5): maxpool(
                (pool): MaxPool2d(kernel_size=(1, 24), stride=(1, 24), padding=0, dilation=1, ceil_mode=False)
              )
            )
            (pool): maxpool(
              (pool): MaxPool2d(kernel_size=(1, 24), stride=(1, 24), padding=0, dilation=1, ceil_mode=False)
            )
            (act): ReLU(inplace=True)
          )
          (1): Conv1d(64, 64, kernel_size=(1,), stride=(1,), bias=False)
          (2): BatchNorm1d(64, eps=1e-05, momentum=0.1, affine=True, track_running_stats=True)
          (3): ReLU()
          (4): Conv1d(64, 64, kernel_size=(1,), stride=(1,), bias=False)
          (5): BatchNorm1d(64, eps=1e-05, momentum=0.1, affine=True, track_running_stats=True)
        )
        (skip_conv): Sequential(
          (0): Conv1d(1, 64, kernel_size=(1,), stride=(1,), bias=False)
          (1): BatchNorm1d(64, eps=1e-05, momentum=0.1, affine=True, track_running_stats=True)
        )
        (act): ReLU(inplace=True)
      )
      (1): PointConv(
        (convs): Sequential(
          (0): set_conv(
            (conv): Sequential(
              (0): Conv2d(67, 128, kernel_size=(1, 1), stride=(1, 1), bias=False)
              (1): BatchNorm2d(128, eps=1e-05, momentum=0.1, affine=True, track_running_stats=True)
              (2): ReLU()
              (3): Conv2d(128, 128, kernel_size=(1, 1), stride=(1, 1), bias=False)
              (4): BatchNorm2d(128, eps=1e-05, momentum=0.1, affine=True, track_running_stats=True)
            )
            (conv1): Sequential(
              (0): Conv2d(128, 128, kernel_size=(1, 1), stride=(1, 1), bias=False)
              (1): BatchNorm2d(128, eps=1e-05, momentum=0.1, affine=True, track_running_stats=True)
              (2): ReLU()
              (3): Conv2d(128, 128, kernel_size=(1, 1), stride=(1, 1), bias=False)
              (4): BatchNorm2d(128, eps=1e-05, momentum=0.1, affine=True, track_running_stats=True)
              (5): maxpool(
                (pool): MaxPool2d(kernel_size=(1, 24), stride=(1, 24), padding=0, dilation=1, ceil_mode=False)
              )
            )
            (pool): maxpool(
              (pool): MaxPool2d(kernel_size=(1, 24), stride=(1, 24), padding=0, dilation=1, ceil_mode=False)
            )
            (act): ReLU(inplace=True)
          )
          (1): Conv1d(128, 128, kernel_size=(1,), stride=(1,), bias=False)
          (2): BatchNorm1d(128, eps=1e-05, momentum=0.1, affine=True, track_running_stats=True)
          (3): ReLU()
          (4): Conv1d(128, 128, kernel_size=(1,), stride=(1,), bias=False)
          (5): BatchNorm1d(128, eps=1e-05, momentum=0.1, affine=True, track_running_stats=True)
        )
        (skip_conv): Sequential(
          (0): Conv1d(64, 128, kernel_size=(1,), stride=(1,), bias=False)
          (1): BatchNorm1d(128, eps=1e-05, momentum=0.1, affine=True, track_running_stats=True)
        )
        (act): ReLU(inplace=True)
      )
      (2): PointConv(
        (convs): Sequential(
          (0): set_conv(
            (conv): Sequential(
              (0): Conv2d(131, 256, kernel_size=(1, 1), stride=(1, 1), bias=False)
              (1): BatchNorm2d(256, eps=1e-05, momentum=0.1, affine=True, track_running_stats=True)
              (2): ReLU()
              (3): Conv2d(256, 256, kernel_size=(1, 1), stride=(1, 1), bias=False)
              (4): BatchNorm2d(256, eps=1e-05, momentum=0.1, affine=True, track_running_stats=True)
            )
            (conv1): Sequential(
              (0): Conv2d(256, 256, kernel_size=(1, 1), stride=(1, 1), bias=False)
              (1): BatchNorm2d(256, eps=1e-05, momentum=0.1, affine=True, track_running_stats=True)
              (2): ReLU()
              (3): Conv2d(256, 256, kernel_size=(1, 1), stride=(1, 1), bias=False)
              (4): BatchNorm2d(256, eps=1e-05, momentum=0.1, affine=True, track_running_stats=True)
              (5): maxpool(
                (pool): MaxPool2d(kernel_size=(1, 24), stride=(1, 24), padding=0, dilation=1, ceil_mode=False)
              )
            )
            (pool): maxpool(
              (pool): MaxPool2d(kernel_size=(1, 24), stride=(1, 24), padding=0, dilation=1, ceil_mode=False)
            )
            (act): ReLU(inplace=True)
          )
          (1): Conv1d(256, 256, kernel_size=(1,), stride=(1,), bias=False)
          (2): BatchNorm1d(256, eps=1e-05, momentum=0.1, affine=True, track_running_stats=True)
          (3): ReLU()
          (4): Conv1d(256, 256, kernel_size=(1,), stride=(1,), bias=False)
          (5): BatchNorm1d(256, eps=1e-05, momentum=0.1, affine=True, track_running_stats=True)
        )
        (skip_conv): Sequential(
          (0): Conv1d(128, 256, kernel_size=(1,), stride=(1,), bias=False)
          (1): BatchNorm1d(256, eps=1e-05, momentum=0.1, affine=True, track_running_stats=True)
        )
        (act): ReLU(inplace=True)
      )
      (3): PointConv()
      (4): Vote_layer(
        (mlp_modules): Sequential(
          (0): Conv1d(256, 128, kernel_size=(1,), stride=(1,), bias=False)
          (1): BatchNorm1d(128, eps=1e-05, momentum=0.1, affine=True, track_running_stats=True)
          (2): ReLU()
        )
        (ctr_reg): Conv1d(128, 3, kernel_size=(1,), stride=(1,))
      )
      (5): PointConv(
        (convs): Sequential(
          (0): set_conv(
            (conv): Sequential(
              (0): Conv2d(259, 512, kernel_size=(1, 1), stride=(1, 1), bias=False)
              (1): BatchNorm2d(512, eps=1e-05, momentum=0.1, affine=True, track_running_stats=True)
              (2): ReLU()
              (3): Conv2d(512, 512, kernel_size=(1, 1), stride=(1, 1), bias=False)
              (4): BatchNorm2d(512, eps=1e-05, momentum=0.1, affine=True, track_running_stats=True)
            )
            (conv1): Sequential(
              (0): Conv2d(512, 512, kernel_size=(1, 1), stride=(1, 1), bias=False)
              (1): BatchNorm2d(512, eps=1e-05, momentum=0.1, affine=True, track_running_stats=True)
              (2): ReLU()
              (3): Conv2d(512, 512, kernel_size=(1, 1), stride=(1, 1), bias=False)
              (4): BatchNorm2d(512, eps=1e-05, momentum=0.1, affine=True, track_running_stats=True)
              (5): maxpool(
                (pool): MaxPool2d(kernel_size=(1, 24), stride=(1, 24), padding=0, dilation=1, ceil_mode=False)
              )
            )
            (pool): maxpool(
              (pool): MaxPool2d(kernel_size=(1, 24), stride=(1, 24), padding=0, dilation=1, ceil_mode=False)
            )
            (act): ReLU(inplace=True)
          )
          (1): Conv1d(512, 512, kernel_size=(1,), stride=(1,), bias=False)
          (2): BatchNorm1d(512, eps=1e-05, momentum=0.1, affine=True, track_running_stats=True)
          (3): ReLU()
          (4): Conv1d(512, 512, kernel_size=(1,), stride=(1,), bias=False)
          (5): BatchNorm1d(512, eps=1e-05, momentum=0.1, affine=True, track_running_stats=True)
        )
        (skip_conv): Sequential(
          (0): Conv1d(256, 512, kernel_size=(1,), stride=(1,), bias=False)
          (1): BatchNorm1d(512, eps=1e-05, momentum=0.1, affine=True, track_running_stats=True)
        )
        (act): ReLU(inplace=True)
      )
    )
  )
  (map_to_bev_module): None
  (pfe): None
  (backbone_2d): None
  (dense_head): None
  (point_head): PointHeadBox3DSSD(
    (cls_loss_func): SigmoidFocalClassificationLoss()
    (reg_loss_func): WeightedSmoothL1Loss()
    (cls_center_layers): Sequential(
      (0): Linear(in_features=512, out_features=256, bias=False)
      (1): BatchNorm1d(256, eps=1e-05, momentum=0.1, affine=True, track_running_stats=True)
      (2): ReLU()
      (3): Linear(in_features=256, out_features=128, bias=False)
      (4): BatchNorm1d(128, eps=1e-05, momentum=0.1, affine=True, track_running_stats=True)
      (5): ReLU()
      (6): Linear(in_features=128, out_features=1, bias=True)
    )
    (box_center_layers): Sequential(
      (0): Linear(in_features=512, out_features=256, bias=False)
      (1): BatchNorm1d(256, eps=1e-05, momentum=0.1, affine=True, track_running_stats=True)
      (2): ReLU()
      (3): Linear(in_features=256, out_features=128, bias=False)
      (4): BatchNorm1d(128, eps=1e-05, momentum=0.1, affine=True, track_running_stats=True)
      (5): ReLU()
      (6): Linear(in_features=128, out_features=30, bias=True)
    )
  )
  (roi_head): None
)
2025-04-29 17:08:15,324   INFO  **********************Start training kitti_models/pan_rgb(test18norgb)**********************
2025-04-29 20:39:03,220   INFO  **********************End training kitti_models/pan_rgb(test18norgb)**********************



2025-04-29 20:39:03,220   INFO  **********************Start evaluation kitti_models/pan_rgb(test18norgb)**********************
…
